embedding_model.pth (torch, 93064 bytes, 2 tensors)

embedding_layer.weight f4 [89, 256]
0	0x3d5ea336	0.05435487
1	0x3d04840c	0.032352492
2	0xbc0c4f40	-0.008563817
3	0xbcaa4508	-0.02078487
4	0x3bd7de70	0.006587796
5	0xbcb93a94	-0.02261094
6	0xbd3d45f2	-0.046209283
7	0x3d52aa62	0.05143202
8	0x3d0e4286	0.03473141
9	0x3c928a10	0.017888099
10	0xbc8b78e4	-0.017025419
11	0x3d250874	0.040291265
12	0xbd442664	-0.047888175
13	0x3d739926	0.059472226
14	0x3ce732ac	0.028222404
15	0xbd724762	-0.059150107
16	0xbd1d7054	-0.038437203
17	0x3c52f6e0	0.012876242
18	0xbbf31d40	-0.0074192584
19	0xbd144bac	-0.03620498
20	0x3ca3e7a0	0.020007908
21	0xbc703c90	-0.014662877
22	0xbc8f07f8	-0.017459854
23	0xbd17b87c	-0.037041172
24	0xbd0f7aac	-0.0350291
25	0xbd235df4	-0.039884523
26	0xbd2e1b4a	-0.042506494
27	0xbd78aa18	-0.06070909
28	0x3cd73e00	0.026274681
29	0x3b996ea0	0.004682377
30	0xbc39e0c8	-0.011345096
31	0xbd6c9028	-0.057754666
32	0xbd60f4e0	-0.05492103
33	0xbd414130	-0.04718131
34	0x3cc054a0	0.023477852
35	0xbd6d2742	-0.057898767
36	0xbd5bbb7e	-0.053645603
37	0x3c75ac98	0.014994763
38	0xbd6f6c0e	-0.05845266
39	0x3c3fbec0	0.011703193
40	0x3cf5f940	0.030026078
41	0x3d5d37f4	0.05400844
42	0xbbe36a80	-0.006940186
43	0xbd221352	-0.039569207
44	0xbc875d7c	-0.016524069
45	0xbd77ce48	-0.06049946
46	0x3d60a564	0.05484523
47	0x3d045d8e	0.032315783
48	0xbcf5ed34	-0.030020334
49	0xbd3e5ab4	-0.04647322
50	0xbd6133d0	-0.054981053
51	0xbd74345e	-0.059620254
52	0xbd5749f6	-0.05256077
53	0x3d7751e8	0.060380846
54	0xbc64fa68	-0.013975717
55	0xbcf11bb4	-0.029432155
56	0x3c8676e0	0.016414106
57	0x3d65ca5e	0.056101196
58	0x3d7e5cd8	0.06210026
59	0xbb715c60	-0.0036828741
60	0xbd29f3f6	-0.041492425
61	0xbd33a176	-0.043855153
62	0x3d21dc1e	0.03951656
63	0xbd6b76ec	-0.05748646
64	0xbc12cd30	-0.008960053
65	0x3ca32d20	0.019918978
66	0xbd5ce98c	-0.053933665
67	0xbc146010	-0.009056106
68	0xbcf2bfcc	-0.029632472
69	0x3cad9530	0.021189302
70	0x3d1b353c	0.037892565
71	0x3c405618	0.011739276
72	0xbc477068	-0.012172796
73	0x3d2c48a0	0.042061448
74	0xbc8202f0	-0.015870541
75	0x3d6c0518	0.057622045
76	0xbd488982	-0.048959263
77	0xbc8b1d74	-0.016981818
78	0x3d11eb0a	0.03562454
79	0x3cb1570c	0.021647952
80	0xbd50aa5c	-0.050943717
81	0xbd2c5100	-0.042069435
82	0x3d75a28e	0.059969477
83	0xbd723a90	-0.05913788
84	0x3d63ece2	0.05564583
85	0x39efda00	0.00045748055
86	0x3d6b96ae	0.057516746
87	0xbcaaafb0	-0.020835727
88	0x3cdb8f14	0.026801623
89	0x3d3c7432	0.04600925
90	0x3ab66e80	0.001391843
91	0x3c96845c	0.01837366
92	0xbd4e8d70	-0.050427854
93	0xbd71c79c	-0.059028253
94	0xbc19a278	-0.0093771145
95	0x3d3099e4	0.04311551
96	0x3d036cfe	0.032086365
97	0x3d11434a	0.035464562
98	0x3d13ef22	0.036116727
99	0x3d1f3b98	0.038875192
100	0xbccd9060	-0.025093257
101	0x3d3e876e	0.046515875
102	0xbbc9b870	-0.00615602
103	0x3cc24c08	0.023717895
104	0x3d19e25c	0.03756939
105	0x39266600	0.00015868992
106	0x3d40c9d2	0.04706747
107	0xbd6d447e	-0.057926647
108	0xbc8683d4	-0.016420282
109	0x3d2a4e12	0.04157836
110	0x3c09c2f0	0.008408293
111	0xbb6df520	-0.0036309436
112	0x3d15956e	0.03651946
113	0x3cec2ae0	0.028829038
114	0x3cd54f14	0.026038684
115	0x3d07c586	0.033147357
116	0x3c4163c0	0.011803567
117	0x3d5bdff4	0.053680375
118	0x3d48f546	0.049062036
119	0xbd2f1596	-0.042745195
120	0x3d7f6938	0.062356204
121	0x3c99eaa8	0.01878865
122	0xbd46ea08	-0.048563033
123	0xbc1b2658	-0.009469591
124	0xbbe6c740	-0.0070427954
125	0xbcf64c4c	-0.030065678
126	0xbd4ea8ae	-0.050453834
127	0xbd10901c	-0.035293683
128	0x3cbe1ea0	0.023207963
129	0x3cc769d8	0.024342462
130	0x3a305180	0.00067260116
131	0xbd4c7998	-0.04992065
132	0xbcbde210	-0.023179084
133	0xbd78e00a	-0.060760535
134	0x3b94d960	0.0045425147
135	0x39ad4700	0.0003305003
136	0x3d4a1d16	0.049344145
137	0xbc138fb8	-0.009006433
138	0x3d572e68	0.05253449
139	0x3d40d4be	0.047077887
140	0x3d3c9d78	0.04604861
141	0x3d32e63e	0.043676607
142	0x3d73849c	0.059452638
143	0x3b285aa0	0.0025688782
144	0xbc146050	-0.009056166
145	0x3d6ee67e	0.058325283
146	0x3d6054ea	0.05476848
147	0x3c38c5b8	0.011277609
148	0xbcc461cc	-0.023972414
149	0xbce6757c	-0.028132193
150	0x3c5ad4e0	0.013356417
151	0xbd0ac244	-0.033876672
152	0x3d518b48	0.05115822
153	0x3cbaacdc	0.022787504
154	0xbd67bf44	-0.05657889
155	0xbd3b0810	-0.045661986
156	0xbc43ee00	-0.011958599
157	0x3d1211d2	0.035661526
158	0x3d73b8e4	0.059502497
159	0x3c016e38	0.007899813
160	0xbb6ca6c0	-0.0036110133
161	0x3d04b3f6	0.032398187
162	0x3d35e35a	0.044406272
163	0xbb95b080	-0.0045681596
164	0xbd46ffc8	-0.048583776
165	0x3cf11fc4	0.029434092
166	0x3d1c7c32	0.03820438
167	0x3d53531c	0.05159293
168	0xbcda1a78	-0.02662395
169	0xbbcc2ad0	-0.0062306896
170	0xbbae32c0	-0.0053161085
171	0xbd48b07a	-0.048996426
172	0xbc02ca68	-0.007982828
173	0xbd710102	-0.05883885
174	0xbc3a93b8	-0.011387758
175	0xbd0b40de	-0.03399741
176	0x3d4408d4	0.04785998
177	0xbd333594	-0.043752268
178	0x3cc43158	0.02394931
179	0xbd20030e	-0.039065413
180	0x3cf7c638	0.030245885
181	0xbcca0bac	-0.024663769
182	0xbcea39b8	-0.028591976
183	0x3cbe9890	0.023266107
184	0xbcec06a0	-0.028811753
185	0xbd370834	-0.044685557
186	0xbcb5a35c	-0.022172622
187	0x3c6a3d58	0.014296852
188	0x3d4cf79e	0.050040834
189	0x3d0cd080	0.03437853
190	0x3d0f46a4	0.034979478
191	0xbd530a4c	-0.05152349
192	0xbc6c9798	-0.01444044
193	0xbc5cb9d8	-0.013472043
194	0x3c534a98	0.0128962025
195	0xbd51bea6	-0.051207207
196	0x3d7a94f4	0.06117721
197	0x3ca154ac	0.019693695
198	0xbd54631e	-0.051852338
199	0xbce0fa50	-0.027463108
200	0xbd088eec	-0.033339426
201	0xbcab6924	-0.020924158
202	0x3c6a4fe0	0.01430127
203	0xbd056196	-0.03256377
204	0x3d2e737e	0.04259061
205	0xbcb10260	-0.021607578
206	0xbbbaf2b0	-0.0057052
207	0xbd01fa28	-0.03173271
208	0x3d7205b8	0.059087485
209	0xbce110c4	-0.027473815
210	0x3d1b6ad0	0.03794366
211	0x3d358ffe	0.044326775
212	0xbd7d351c	-0.061818227
213	0x3d55845a	0.052128173
214	0xbc341ed8	-0.010993682
215	0x3d2f70f0	0.042832315
216	0x3d45b654	0.048269585
217	0xbc337440	-0.010953009
218	0xbc3130b8	-0.010814838
219	0xbd03aee0	-0.032149196
220	0x3d6bdd8a	0.057584323
221	0xbcecdd38	-0.02891408
222	0xba922740	-0.0011150613
223	0x3d0e7f3e	0.034789316
224	0x3cdd2894	0.026996888
225	0x3d004766	0.03131809
226	0x3b6e9820	0.0036406592
227	0x3d4f0904	0.050545707
228	0xbd418df8	-0.047254533
229	0x3d03112e	0.031998806
230	0xbcbef590	-0.023310453
231	0xbd3efffc	-0.046630844
232	0x3d5e85ee	0.054326944
233	0x3b9ddcb0	0.0048175678
234	0x3a284300	0.0006418675
235	0xbcf15614	-0.02945999
236	0x3c3b5ba8	0.011435427
237	0xbd177bde	-0.036983363
238	0x3d318f40	0.043349504
239	0x3c57a7b8	0.013162546
240	0xbd382092	-0.044952936
241	0x3b0db860	0.0021624789
242	0xbd150b28	-0.036387593
243	0xbce9cb14	-0.028539218
244	0xbce102a8	-0.027467087
245	0xbcec6d84	-0.028860815
246	0x3d3d5284	0.04622127
247	0xbd296610	-0.0413571
248	0xbcdd25ec	-0.026995622
249	0x3c9550bc	0.018226974
250	0x3d63fcda	0.05566106
251	0x3c74c360	0.014939159
252	0xbd49d368	-0.04927388
253	0x3d69e734	0.057105258
254	0xbd70e614	-0.05881317
255	0xbc8b5628	-0.017008856

embedding_layer.bias f4 [89]
0	0x3c9aec0c	0.018911384
1	0x3c64cbd0	0.013964608
2	0xbb70d300	-0.003674686
3	0x3ce8b854	0.028408207
4	0xbd7cfa90	-0.061762393
5	0x3d0aad18	0.03385648
6	0xbce06c38	-0.027395353
7	0xbca86fac	-0.020561062
8	0x3cb6b2d4	0.022302069
9	0x3d6bb466	0.05754509
10	0xbca8b210	-0.02059272
11	0x3bd779a0	0.006575778
12	0xbca29efc	-0.0198512
13	0xbbff9c90	-0.007800646
14	0x3d79cd60	0.060986876
15	0xbd10dbd6	-0.035365902
16	0x3cc37730	0.023860544
17	0x3c47f570	0.012204513
18	0xbd722bf6	-0.059123956
19	0x3cd0eaa4	0.02550251
20	0xbd12eeb8	-0.03587219
21	0x3cfe22c0	0.03102243
22	0xba34bd00	-0.0006894618
23	0xbd68a062	-0.056793578
24	0xbd7ea824	-0.06217207
25	0xbc8e9450	-0.017404705
26	0xbd3462bc	-0.044039473
27	0x3d5d8706	0.054083847
28	0xbd30278c	-0.043006465
29	0x3d5738e6	0.052544497
30	0x3bd27fd0	0.006423928
31	0x3cfc34c0	0.030786872
32	0xbc2cbb38	-0.010542683
33	0x3ce9a3a8	0.02852042
34	0x3d4fe140	0.050751925
35	0xbd4d4286	-0.05011227
36	0x3d1a9fa2	0.037749894
37	0xbbbd2cc0	-0.005773157
38	0xbd5b4d1c	-0.053540334
39	0xbc623698	-0.0138069615
40	0xbd670790	-0.056403697
41	0xbb4fba00	-0.0031696558
42	0xbb606700	-0.003424108
43	0xbd40188a	-0.046898402
44	0x3c227300	0.009915113
45	0x3d6c82c8	0.05774191
46	0x3d5cddd4	0.05392249
47	0xbd2f3c6c	-0.042782232
48	0x3d5ffedc	0.054686412
49	0x3d3ae2e8	0.04562655
50	0xbd1f1ab4	-0.038843825
51	0xbcf36de0	-0.029715478
52	0xbbc14fb0	-0.005899392
53	0xbd0244ec	-0.03180401
54	0x3cfeeb30	0.031118006
55	0x3d3bd4ee	0.045857362
56	0xbd279e10	-0.040922225
57	0x3d16e224	0.03683676
58	0xbd5ca5ca	-0.053869046
59	0x3d2d3b42	0.04229284
60	0x3c08b870	0.008344755
61	0xbcede91c	-0.02904182
62	0xbd1b7d0a	-0.037961043
63	0xbca3419c	-0.019928746
64	0xbd12ea64	-0.035868064
65	0xbc59a450	-0.013283804
66	0x3d6bef26	0.057601117
67	0xbd72fa7a	-0.059320904
68	0x3d7971cc	0.06089954
69	0xbcc94a04	-0.024571426
70	0x3d5ca4b4	0.05386801
71	0xbd3ec6a4	-0.046576157
72	0xbcc539bc	-0.024075381
73	0x3c848c0c	0.01618006
74	0x3c07a820	0.00827983
75	0x3d60135e	0.05470597
76	0xbc6db300	-0.014508009
77	0x3d3f2bee	0.046672754
78	0x3d2f898e	0.04285579
79	0xbcaf29f4	-0.02138231
80	0xbcfe1520	-0.031015933
81	0x39184c00	0.00014524162
82	0x3c5dc318	0.0135352835
83	0x3d65ba84	0.05608608
84	0x3c948544	0.018129952
85	0x3cd58400	0.026063919
86	0xbcf60f18	-0.030036494
87	0xbd6f2b2e	-0.05839079
88	0x3d4d3620	0.050100446
