embedding_model.pth (torch, 93064 bytes, 2 tensors)

embedding_layer.weight f4 [89, 256]
0.021933213 0.03815587 -0.0051892027 0.004956223 -0.00018366426 -0.010751486 -0.0019080341 -0.03279557
0.05981981 0.01995591 -0.056363456 -0.02659624 0.05032379 0.017387047 -0.018960662 -0.024173975
0.053409874 -0.029402956 0.0014207065 -0.025006555 -0.035507448 0.029474676 0.007125728 0.031401947
0.054078013 0.01000721 -0.008639522 0.06109781 0.024217576 -0.03227605 -0.0068772137 0.013591297
-0.018086456 -0.004865736 0.028327651 -0.03622538 -0.02290605 -0.040825263 -0.03474579 0.061609782
0.009705305 -0.024211973 0.0622221 0.020333163 -0.040626712 -0.019484371 0.018525802 -0.002712883
-0.009507224 -0.017425649 -0.032156326 -0.06211514 0.042775467 0.005400002 0.0039655194 -0.05334025
-0.015905432 -0.040384844 -0.021861956 -0.022540726 0.051786356 0.029248208 -0.052226134 -0.036570437
-0.0050255954 0.027422361 -0.013582639 0.02469416 0.0036138967 0.046553917 -0.05970221 -0.027792342
-0.0025816932 0.050116755 0.050530396 -0.02682212 0.041604415 -0.02082403 0.044317752 0.051504135
0.018674552 0.0104297325 -0.03915371 0.027290434 0.006461233 -0.012323692 0.023228742 0.0055921897
0.043086156 -0.048513427 0.046851166 0.009304285 0.04751447 0.010299467 0.044880457 0.023795746
-0.0069792345 0.00046863407 0.022402614 0.033908464 0.010395609 -0.056068078 -0.039589614 0.017740257
0.037313417 -0.012425646 0.059662476 -0.05620613 0.013300315 0.0073214024 0.0049446225 0.051282972
-0.02828794 -0.0500369 0.024594188 -0.037643984 -0.0072802454 0.048889287 0.052990384 0.018879406
-0.057680905 0.04718028 0.03915146 0.018813305 -0.013367131 0.03288666 0.033080786 0.056532726
0.020591766 -0.0101346 -0.057966538 -0.021650724 0.045143425 -0.002843514 -0.03803146 0.035239086
0.04268963 0.020739198 -0.022126831 -0.023278385 -0.048886158 0.025904246 0.029271848 -0.00867521
-0.036693953 0.060548097 0.027253777 -0.026876777 0.015462801 0.0487193 0.03750007 -0.05888909
-0.055634692 -0.03503321 0.058810502 0.040495895 0.0008215606 -0.027606755 -0.03748315 -0.03908652
0.010831468 -0.022238597 0.028069802 0.04066564 -0.058010295 -0.05209986 -0.030915722 0.043364808
0.030909866 -0.0012487173 -0.020532437 0.055276096 -0.019389115 -0.061183907 0.02250944 -0.0059166998
-0.023957968 -0.05731044 -0.002589196 -0.0060410053 -0.059788495 -0.02911941 -0.024019562 -0.0266091
-0.008981571 0.0007128045 0.05253894 -0.061421007 0.045319863 0.05661486 -0.043582402 0.02525232
-0.043225497 -0.005660586 0.014391869 0.043878928 0.0037492514 0.006289728 0.009167127 0.017265812
-0.0006173402 0.03563293 0.026311874 0.062429607 0.03589108 -0.0075911507 0.054588012 -0.038693048
-0.04639104 -0.05159095 -0.033600092 0.004719153 -0.036462 -0.003008142 0.043608338 0.033674456
0.03695368 0.05865799 -0.013726711 -0.060948797 0.05232367 -0.05823607 0.03153672 -0.050437875
0.0344792 0.033272073 0.010999098 0.00831452 0.012765408 0.048731744 -0.007824123 0.036011256
0.023030661 0.011996135 0.040131785 0.0028961822 -0.031722218 0.048975952 -0.025432467 0.027748026
-0.00042517483 0.022987723 -0.0041669533 0.015036583 0.052426226 0.020996563 0.04902456 0.02450072
-0.060362227 0.009520203 -0.049009956 -0.03186465 0.016071752 0.055534042 0.037658446 -0.05107639
00000000: 48ad b33c 5449 1c3d 300a aabb d067 a23b
00000010: 0096 40b9 0027 30bc 0017 faba a654 06bd
00000020: 9e05 753d 947a a33c 5edd 66bd 5ce0 d9bc
00000030: 5220 4e3d 486f 8e3c 6453 9bbc 8008 c6bc
00000040: 50c4 5a3d 78de f0bc 0037 ba3a 8cda ccbc
00000050: 4270 11bd e074 f13c f07e e93b 549f 003d
00000060: e880 5d3d 48f5 233c c88c 0dbc b241 7a3d
00000070: f063 c63c e433 04bd 405a e1bb 08ae 5e3c
00000080: 0c2a 94bc c070 9fbb 640f e83c 1061 14bd
00000090: 78a5 bbbc 6438 27bd 9a51 0ebd 8a5a 7c3d
000000a0: 0003 1f3c 3058 c6bc 9adc 7e3d bc91 a63c
000000b0: 3268 26bd b09d 9fbc 6cc3 973c a0ca 31bb
000000c0: 30c4 1bbc 3cc0 8ebc 5ab6 03bd 726c 7ebd
000000d0: 5435 2f3d 80f2 b03b 30f1 813b 4e7b 5abd
000000e0: 1c4c 82bc 946a 25bd d817 b3bc 54a7 b8bc
000000f0: ee1d 543d f099 ef3c 12eb 55bd e2ca 15bd
00000100: c0ad a4bb dca4 e03c b889 5ebc 684b ca3c
00000110: 20d7 6c3b 52af 3e3d 4e8a 74bd c4ac e3bc
00000120: a031 29bb 3a47 4d3d f6f8 4e3d 10ba dbbc
00000130: 6469 2a3d 2897 aabc 8886 353d 00f6 523d
00000140: 60fb 983c 78e1 2a3c a45f 20bd 3090 df3c
00000150: c0b8 d33b 50e9 49bc 344a be3c b03e b73b
00000160: 1c7b 303d 04b6 46bd 02e7 3f3d 0071 183c
00000170: 889e 423d 18bf 283c 92d4 373d 4cef c23c
00000180: 10b2 e4bb 00b3 f539 b085 b73c 9ae3 0a3d
00000190: 5852 2a3c a4a7 65bd b828 22bd 0454 913c
000001a0: f4d5 183d f094 4bbc a460 743d 6638 66bd
000001b0: 90e9 593c 60e8 ef3b 8006 a23b 180e 523d
000001c0: 1cbc e7bc 7ef3 4cbd c079 c93c 9430 1abd
000001d0: 208f eebb 2240 483d 720c 593d fca8 9a3c
000001e0: d042 6cbd 1c40 413d 485d 203d 5c1e 9a3c
000001f0: d001 5bbc 2ab4 063d b87f 073d dc8e 673d
00000200: 10b0 a83c 980b 26bc 526e 6dbd dc5c b1bc
00000210: 50e8 383d 405a 3abb e0c6 1bbd dc56 103d
00000220: 52db 2e3d 40e5 a93c 5443 b5bc 50b2 bebc
00000230: da3c 48bd 2435 d43c 84cb ef3c 7822 0ebc
00000240: 664c 16bd 4801 783d 5043 df3c b02c dcbc
00000250: b057 7d3c e48d 473d ac99 193d b035 71bd
00000260: 34e1 63bd fc7e 0fbd 48e3 703d 06df 253d
00000270: 005e 573a 9027 e2bc ee87 19bd 3019 20bd
00000280: 7876 313c b82d b6bc a4f2 e53c 0491 263d
00000290: 349c 6dbd aa66 55bd f842 fdbc 4c9f 313d
000002a0: b036 fd3c 00ac a3ba a433 a8bc 3069 623d
000002b0: ecd5 9ebc fa9b 7abd b865 b83c e0e0 c1bb
000002c0: 8043 c4bc 5abe 6abd 80af 29bb a0f3 c5bb
000002d0: c8e4 74bd d48b eebc acc4 c4bc 54fb d9bc
000002e0: 7027 13bc 80db 3a3a 1233 573d 9894 7bbd
000002f0: 52a1 393d fce4 673d 7683 32bd f4dd ce3c
00000300: 380d 31bd 707c b9bb e0cb 6b3c 64ba 333d
00000310: 00b6 753b 101a ce3b b831 163c 0871 8d3c
00000320: 00d5 21ba d6f3 113d 008c d73c 30b6 7f3d
00000330: 8602 133d 30bf f8bb ae97 5f3d 9a7c 1ebd
00000340: 8804 3ebd 0851 53bd 40a0 09bd 20a3 9a3b
00000350: 2e59 15bd 4024 45bb a89e 323d 3aee 093d
00000360: be5c 173d 5c43 703d 00e6 60bc 72a5 79bd
00000370: 5851 563d f288 6ebd a62c 013d f297 4ebd
00000380: 103a 0d3d 4c48 083d 9035 343c a039 083c
00000390: 0026 513c f09a 473d c030 00bc 8a80 133d
000003a0: ccaa bc3c 708b 443c 3a61 243d e0cd 3d3b
000003b0: 28ef 01bd 029b 483d c057 d0bc d44f e33c
000003c0: 00ea deb9 c050 bc3c f08a 88bb 005c 763c
000003d0: e2bc 563d fc00 ac3c facd 483d bcb5 c83c
000003e0: 623e 77bd a0fa 1b3c aabe 48bd 8284 02bd
000003f0: e8a8 833c aa77 633d be3f 1a3d 7a35 51bd

embedding_layer.bias f4 [89]
-0.001886934 0.047855534 -0.0060005784 0.00850641 0.014036961 0.016164415 -0.008580044 -0.019532882
0.037670717 0.039426938 -0.02794756 -0.0074018613 0.008503109 -0.026011504 -0.06214381 -0.025406837
-0.023713253 0.036787152 -0.059374034 -0.028488182 -0.011808284 -0.026300944 0.044783123 0.048209406
-0.02636715 0.04014556 0.02286145 0.006398663 -0.01243028 0.04884661 0.0022163168 -0.033826604
-0.055617288 -0.021583572 0.011025965 -0.058995992 0.016230673 0.024514198 0.046869636 0.031787813
-0.021818586 0.051916867 0.053738758 -0.061073013 -0.0517682 0.033514485 0.032615438 0.02743426
0.03523168 0.028673455 -0.052789494 0.002012208 -0.034371287 0.041114867 -0.011000492 0.01079087
-0.02955427 -0.06032799 -0.06138636 0.012666412 -0.05046656 0.05733122 0.035011753 0.039862446
0.052404635 0.036597922 0.027061924 0.009545021 -0.051208995 -0.040769592 0.059601307 0.023732059
0.024721652 0.04787895 -0.028489426 0.054090694 0.04642965 -0.036356926 0.006992109 0.06046252
0.0008000806 -0.048140682 -0.048210926 0.018405244 0.02302143 -0.0049393997 0.014596954 0.038759664
0.007656105
00000000: 0053 f7ba 2a04 443d 80a0 c4bb 785e 0b3c
00000010: 48fb 653c 3c6b 843c 5093 0cbc 6c03 a0bc
00000020: 9c4c 1a3d 247e 213d 48f2 e4bc 508b f2bb
00000030: a050 0b3c 1416 d5bc 828a 7ebd 0022 d0bc
00000040: 4c42 c2bc 20ae 163d 3032 73bd 0c60 e9bc
00000050: 8877 41bc 1475 d7bc 826e 373d 3a77 453d
00000060: ecff d7bc ac6f 243d f047 bb3c e0ab d13b
00000070: 60a8 4bbc 6213 483d a03f 113b c48d 0abd
00000080: f4ce 63bd 08d0 b0bc 40a6 343c c8a5 71bd
00000090: 30f6 843c 00d2 c83c 60fa 3f3d f033 023d
000000a0: e4bc b2bc c8a6 543d 2c1d 5c3d b227 7abd
000000b0: e40a 54bd 7c46 093d c497 053d d0bd e03c
000000c0: 184f 103d 98e4 ea3c cc39 58bd 40df 033b
000000d0: e8c8 0cbd 1068 283d 683b 34bc 30cc 303c
000000e0: cc1b f2bc 7c1a 77bd 4470 7bbd c886 4f3c
000000f0: 06b6 4ebd 24d4 6a3d 7c68 0f3d ce46 233d
00000100: 3ea6 563d b4e7 153d f8b0 dd3c b862 1c3c
00000110: 86c0 51bd 04fe 26bd 8020 743d bc69 c23c
00000120: 1085 ca3c b81c 443d a862 e9bc 348e 5d3d
00000130: 042d 3e3d 00eb 14bd 101e e53b 8ca7 773d
00000140: 80bc 513a 2a2f 45bd d278 45bd 98c6 963c
00000150: 7097 bc3c b0da a1bb 1028 6f3c 74c2 1e3d
00000160: 10e0 fa3b
